model/model.pth (torch, 16787 bytes, 4 tensors)

linear1.weight f4 [256, 11]
-0.22616003 -0.28560933 0.17004974 0.22425877 -0.2572512 -0.066858925 0.06356781 -0.27130267
-0.17586078 0.0009262499 -0.28986585 0.14125784 -0.17656358 -0.14933684 -0.20386498 -0.037578173
0.05436127 0.14324138 -0.29976827 0.08982846 0.12667724 0.14520548 -0.04790175 -0.2609677
0.10524287 0.054570783 -0.26332316 -0.11818126 -0.2188832 0.2958457 0.11495365 0.031991564
-0.25866434 -0.20776752 -0.1937217 0.010178462 0.17868622 -0.02292657 0.10733014 -0.1398965
0.23658037 -0.072187744 0.23059817 0.21235766 0.12944761 -0.24160329 0.12775162 -0.19485304
0.24806418 0.18830991 0.1936144 -0.14550442 0.118399 0.035412185 -0.10026248 0.21856032
0.14028339 -0.20550467 0.18323785 0.14030956 0.029263832 -0.22914603 0.08102085 -0.28456202
-0.2070147 0.19751765 0.10660876 0.13031477 -0.23220359 0.265472 0.26131517 -0.11997376
0.14586622 0.14601925 0.14441976 -0.1710561 -0.10408217 0.15788408 0.025650293 4.4137945e-05
0.21532995 0.10496536 -0.26349062 -0.110984474 -0.0047058673 0.21077928 -0.18235114 -0.22576123
-0.07519045 0.08370647 0.04555264 0.20843297 0.0055543245 0.29028097 -0.09451439 0.12120208
0.24629809 -0.10634564 0.04277072 -0.23776509 0.10137671 -0.27372012 0.14354542 -0.03453187
0.13586822 -0.22302862 0.063603714 -0.18879227 -0.07666891 -0.11615689 -0.00082697545 0.0858874
-0.28381425 -0.17100914 -0.04745729 0.21579581 0.2562085 0.0014399106 0.06446082 0.06732637
-0.17487572 -0.23278795 0.0393768 -0.09851561 0.15915874 0.30424017 0.08353621 -0.22995274
0.14897862 -0.25105286 0.1275284 -0.23730426 -0.07777009 0.2419877 -0.06521904 -0.17159651
0.18696402 0.28641212 0.19828995 -0.1345766 -0.12072335 -0.13684899 0.25367254 -0.08524038
-0.1506789 -0.042761475 0.25540414 0.27320397 0.05763032 -0.2664496 -0.13718703 0.29060203
0.19795236 -0.28768486 0.20504297 0.29677722 -0.21159483 -0.19289455 -0.13110915 0.19973557
-0.23465796 -0.21749233 -0.059781328 0.011987514 -0.23340319 -0.004538553 -0.09541761 -0.25501975
-0.22266646 -0.24131154 0.18119465 0.2764157 0.09499313 0.22772773 -0.07394529 -0.29119563
-0.18264882 -0.07154527 -0.0022505322 -0.14616655 -0.0906702 0.044828232 -0.12379623 -0.17275786
-0.055863652 0.28831095 -0.15295887 0.115355864 0.023048706 0.07030016 0.068414 0.08623023
-0.27293205 0.13779856 -0.2239007 0.06988528 -0.17976081 0.006373257 -0.14474413 -0.054535557
-0.10778603 0.057735264 0.09031392 0.22100388 -0.07287169 0.17530489 0.09447835 0.28740525
0.26938412 -0.28164202 0.22440249 -0.13228962 0.25647828 -0.279449 0.07324638 0.104663685
0.26842043 0.016248826 0.086965665 0.05063369 -0.12834567 -0.026363079 0.16831072 -0.01853668
0.07856562 0.12699454 -0.09217571 0.28727162 -0.23681349 0.12555172 -0.18990351 0.21929483
-0.06874219 0.2305481 0.17332882 0.1871294 0.23119669 -0.24144334 0.2869766 -0.2733841
-0.2971939 0.11469822 0.06663008 0.008308106 0.18017703 -0.27838516 0.28474262 -0.029757243
0.008624308 0.027523173 -0.15688096 0.0031739785 0.2910717 -0.10867819 0.016779285 -0.274743
00000000: 7f96 67be 633b 92be 8521 2e3e 17a4 653e
00000010: 6eb6 83be 55ed 88bd d72f 823d 2fe8 8abe
00000020: d914 34be 94cf 723a 4c69 94be e5a5 103e
00000030: 15cd 34be c2eb 18be fbc1 50be 92eb 19bd
00000040: eca9 5e3d dead 123e 3a7b 99be fcf7 b73d
00000050: aeb7 013e bfb0 143e a034 44bd 8f9d 85be
00000060: 9389 d73d 9d85 5f3d 4bd2 86be 0409 f2bd
00000070: eb22 60be 1679 973e d26c eb3d 9609 033d
00000080: a76f 84be 02c1 54be fb5e 46be 90c3 263c
00000090: 85f9 363e 81d0 bbbc e8cf db3d 0741 0fbe
000000a0: 2042 723e 2bd7 93bd ed21 6c3e 4974 593e
000000b0: ea8d 043e da66 77be 52d1 023e 8e87 47be
000000c0: 8904 7e3e 50d4 403e da42 463e 1cff 14be
000000d0: 2d7b f23d 5e0c 113d 6a56 cdbd 47ce 5f3e
000000e0: 73a6 0f3e d16f 52be b4a2 3b3e 4fad 0f3e
000000f0: b4ba ef3c 42a5 6abe 42ee a53d 1db2 91be
00000100: a9fb 53be 1142 4a3e b255 da3d 3c71 053e
00000110: c7c6 6dbe f2eb 873e 1acb 853e cdb4 f5bd
00000120: f45d 153e 1286 153e c6e2 133e 5529 2fbe
00000130: 0829 d5bd 5dac 213e 9020 d23c c220 3938
00000140: 747f 5c3e 14f8 d63d 3ee8 86be d44b e3bd
00000150: ad33 9abb 86d6 573e 42ba 3abe f42d 67be
00000160: 73fd 99bd 4c6e ab3d 6895 3a3d 746f 553e
00000170: 0d01 b63b b59f 943e c390 c1bd cc38 f83d
00000180: 9135 7c3e becb d9bd 5a30 2f3d b178 73be
00000190: 989e cf3d 0b25 8cbe 92fd 123e 4a71 0dbd
000001a0: 0a21 0b3e 9d61 64be aa42 823d c352 41be
000001b0: 9704 9dbd aae3 edbd 62c9 58ba bce5 af3d
000001c0: 1a50 91be 051d 2fbe 9362 42bd 94f9 5c3e
000001d0: c32d 833e 62bb bc3a 0904 843d 68e2 893d
000001e0: 9f12 33be f75f 6ebe 9149 213d 8dc2 c9bd
000001f0: 82fa 223e 5ec5 9b3e 0815 ab3d bb78 6bbe
00000200: da8d 183e 008a 80be ce96 023e e3ff 72be
00000210: ed45 9fbd a0cb 773e 8f91 85bd ffb6 2fbe
00000220: 7f73 3f3e 9ca4 923e 850c 4b3e 73ce 09be
00000230: ce3d f7bd 2422 0cbe 5ee1 813e 8292 aebd
00000240: 924b 1abe a826 2fbd 55c4 823e 64e1 8b3e
00000250: c50d 6c3d 156c 88be c27a 0cbe cac9 943e
00000260: 06b4 4a3e 6e4b 93be c9f6 513e 2ff3 973e
00000270: 51ac 58be 2686 45be 7a41 06be 7b87 4c3e
00000280: 2d4a 70be 4fb6 5ebe 44dd 74bd 4767 443c
00000290: 3f01 6fbe 24b8 94bb 4f6a c3bd f391 82be
000002a0: ad02 64be 5f1a 77be 178b 393e 5c86 8d3e
000002b0: c28b c23d 7531 693e a170 97bd 9817 95be
000002c0: 4b08 3bbe 5486 92bd aa7d 13bb afac 15be
000002d0: 4cb1 b9bd cf9d 373d e188 fdbd 70e7 30be
000002e0: 49d1 64bd 7e9d 933e 40a1 1cbe b23f ec3d
000002f0: a4d0 bc3c 88f9 8f3d a41c 8c3d 7a99 b03d
00000300: c0bd 8bbe 111b 0d3e 3a46 65be 0420 8f3d
00000310: 3813 38be c1d6 d03b ce37 14be ad60 5fbd
00000320: ecbe dcbd d07b 6c3d 81f6 b83d d74e 623e
00000330: c13d 95bd 2083 333e dd7d c13d c826 933e
00000340: b7ec 893e 6233 90be c4c9 653e ee76 07be
00000350: 1f51 833e f013 8fbe 3302 963d ea59 d63d
00000360: 676e 893e 421c 853c 0e1b b23d 4665 4f3d
00000370: 0c6d 03be 62f7 d7bc a559 2c3e 3cda 97bc
00000380: 03e7 a03d db0a 023e 9ec6 bcbd 4415 933e
00000390: 3c7f 72be a190 003e 1176 42be d38e 603e
000003a0: b5c8 8cbd cd14 6c3e 1c7d 313e d99e 3f3e
000003b0: d3be 6c3e ec3c 77be 99ee 923e 00f9 8bbe
000003c0: cd29 98be e6e6 ea3d 5a75 883d b91e 083c
000003d0: 5480 383e 8088 8ebe c9c9 913e 76c5 f3bc
000003e0: f84c 0d3c 4778 e13c 67a5 20be 8602 503b
000003f0: 5a07 953e ac92 debd b674 893c 1dab 8cbe

linear1.bias f4 [256]
-0.17024113 0.2579839 0.031351924 0.23033665 -0.22927693 -0.086855374 0.17383686 -0.2377788
-0.012902838 0.15959136 0.27621788 0.028263101 -0.1426038 -0.050019756 0.18929313 -0.23128748
0.105566 -0.12313815 0.23159741 -0.23138899 0.024571933 -0.23944499 -0.29205784 -0.059233163
0.035260797 -0.19100668 -0.15513097 -0.29504168 -0.016138874 0.062426794 0.16567534 0.0369754
0.07216056 0.27392206 -0.22540347 0.14740181 0.14205235 -0.27504098 0.08137349 -0.2350232
-0.2715822 -0.21303089 0.280046 0.11968111 0.075724274 -0.19022258 -0.10698471 0.14386684
0.2661579 0.28813505 0.20930286 -0.13082176 -0.23005474 0.027965289 0.024537085 -0.037594017
0.15691122 0.047841713 0.17465767 -0.2054924 0.21851285 0.2723626 0.10740782 -0.25743282
-0.058762524 -0.111917466 -0.17188804 0.03590712 -0.022862019 0.031646807 -0.01635792 0.15415792
-0.054605685 -0.25648507 0.24910851 0.24724248 -0.28107563 -0.20266953 -0.1321609 0.14156777
0.25025102 0.15508604 0.14555307 -0.09463002 0.25428492 -0.07450583 -0.23519707 -0.038914356
-0.2291784 0.13347359 -0.16176683 0.26910615 0.1657024 -0.01853681 -0.27972612 0.25042176
-0.025593394 -0.22009046 -0.11469663 0.26409733 -0.046276394 -0.20579346 0.20344879 0.18235381
-0.17272682 -0.15196432 0.22434163 0.1373875 0.12783538 -0.09169299 0.24029335 -0.037172783
0.121924035 -0.13345374 0.19819067 -0.12057619 0.24681754 -0.28259802 -0.095051356 0.16789794
-0.11981265 0.1137786 0.29006797 -0.112952314 0.23051046 0.22549592 -0.05264424 0.14863479
0.24606846 -0.2650579 -0.19609123 0.19761659 -0.01410287 0.022287467 -0.026297946 0.24662806
-0.15266404 0.270842 -0.1076428 -0.08809985 0.019665828 0.0046547563 -0.087282576 -0.2983207
0.21470441 -0.07917967 0.040871453 -0.110327266 -0.15894862 -0.010158663 -0.22635895 -0.21503112
-0.2331903 0.15174162 -0.115385816 0.10718766 0.0825165 0.05928265 0.25903648 -0.20296298
0.29830822 0.014355256 -0.050852053 -0.044735584 0.16057868 -0.01653515 -0.04775561 -0.19145447
0.15807717 0.16064756 -0.19739075 0.16848141 -0.102490984 0.15228437 0.09733543 0.20228389
0.22344752 0.14468254 -0.078564614 -0.29619235 -0.1942746 -0.09459498 0.17098077 -0.14271383
0.12332828 -0.2648996 0.07412652 0.26116684 0.17904098 0.17945221 0.2901154 0.093560845
-0.066823445 -0.18563372 -0.11138919 -0.1290634 -0.26263985 -0.14684275 0.14341998 -0.11867829
-0.015118192 0.13087285 0.11575839 0.18267897 0.23592652 0.064642474 -0.0053213895 -0.2257496
0.23510502 -0.2879616 -0.18948497 0.1980903 -0.26587433 0.27830136 0.110642835 0.08917239
0.108892195 0.16138825 0.024427729 -0.1354282 -0.19420546 0.10936622 -0.18826936 -0.15965278
-0.22967815 -0.27544478 0.01669079 0.2798119 -0.00467721 -0.17809965 0.09114701 0.13052475
0.11943783 -0.19639955 -0.05997718 -0.24519406 -0.19930567 0.15507555 0.045117825 -0.20533203
0.1596411 -0.09765228 -0.23384273 0.0042180093 -0.0546703 -0.08226965 0.19952339 -0.22979067
-0.11106881 -0.24059936 0.027109345 -0.039556958 0.08694082 -0.101966746 -0.12282665 -0.06926569
00000000: b153 2ebe 7716 843e e06a 003d 5fdd 6b3e
00000010: 92c7 6abe 3be1 b1bd 4a02 323e 497c 73be
00000020: 6d66 53bc eb6b 233e 6e6c 8d3e 0588 e73c
00000030: bb06 12be 84e1 4cbd 0fd6 413e a0d6 6cbe
00000040: fd32 d83d db2f fcbd df27 6d3e 3cf1 6cbe
00000050: 144b c93c 1131 75be 9b88 95be 799e 72bd
00000060: a06d 103d 4197 43be a7da 1ebe b40f 97be
00000070: ac35 84bc 3db3 7f3d cca6 293e 8473 173d
00000080: eac8 933d 833f 8c3e 2bd0 66be 80f0 163e
00000090: 2c76 113e 2cd2 8cbe 25a7 a63d eca9 70be
000000a0: d20c 8bbe c524 5abe 3062 8f3e 5f1b f53d
000000b0: 5415 9b3d b5c9 42be cd1a dbbd d451 133e
000000c0: d945 883e 7086 933e 7d53 563e 24f6 05be
000000d0: 7893 6bbe 7617 e53c ff01 c93c 2ffc 19bd
000000e0: 56ad 203e acf5 433d 76d9 323e 9a6c 52be
000000f0: d5c1 5f3e 1c73 8b3e a2f8 db3d 3cce 83be
00000100: f9b0 70bd fc34 e5bd 6b03 30be 5813 133d
00000110: 2149 bbbc 15a0 013d 0b01 86bc 93db 1d3e
00000120: 36aa 5fbd 0352 83be 4d16 7f3e 222d 7d3e
00000130: 25e9 8fbe 9a88 4fbe 3055 07be 24f7 103e
00000140: e720 803e e0ce 1e3e dd0b 153e 62cd c1bd
00000150: a231 823e 8396 98bd 80d7 70be a964 1fbd
00000160: bead 6abe 4dad 083e 34a6 25be 48c8 893e
00000170: e4ad 293e 82da 97bc 4338 8fbe 4837 803e
00000180: 3da9 d1bc 655f 61be 11e6 eabd c437 873e
00000190: 518c 3dbd 85bb 52be e154 503e f5ba 3a3e
000001a0: 4ddf 30be 899c 1bbe d0b9 653e 4faf 0c3e
000001b0: 47e7 023e 89c9 bbbd 760f 763e 7d42 18bd
000001c0: 4fb3 f93d 19a8 08be 7ff2 4a3e a6f0 f6bd
000001d0: bdbd 7c3e b0b0 90be 49aa c2bd 70ed 2b3e
000001e0: 5660 f5bd c104 e93d ca83 943e 8b53 e7bd
000001f0: ef0a 6c3e 67e8 663e 7da1 57bd b833 183e
00000200: 5ff9 7b3e abb5 87be 24cc 48be 015c 4a3e
00000210: b90f 67bc 3594 b63c ca6e d7bc 118c 7c3e
00000220: f653 1cbe cdab 8a3e d473 dcbd b26d b4bd
00000230: 3b1a a13c ed86 983b 35c1 b2bd 7ebd 98be
00000240: 79db 5b3e f328 a2bd d368 273d 43f3 e1bd
00000250: 6dc3 22be 8570 26bc a4ca 67be 1e31 5cbe
00000260: 70c9 6ebe 2862 1b3e 664f ecbd 3485 db3d
00000270: 69fe a83d 5dd2 723d 6ea0 843e 87d5 4fbe
00000280: dbbb 983e 4f32 6b3c 3e4a 50bd a93c 37bd
00000290: bd6e 243e b974 87bc 639b 43bd a40c 44be
000002a0: fbde 213e cb80 243e cd20 4abe 6486 2c3e
000002b0: cbe6 d1bd 6ff0 1b3e cc57 c73d 8223 4f3e
000002c0: 6dcf 643e a927 143e 7ce6 a0bd 86a6 97be
000002d0: ecef 46be 03bb c1bd 9515 2f3e 9323 12be
000002e0: 8a93 fc3d eca0 87be a5cf 973d a9b7 853e
000002f0: 8556 373e 52c2 373e 018a 943e d49c bf3d
00000300: bbda 88bd c416 3ebe 0420 e4bd 3229 04be
00000310: bb78 86be f25d 16be b0dc 123e 9a0d f3bd
00000320: 4bb2 77bc 8803 063e bc12 ed3d 3210 3b3e
00000330: b996 713e 4663 843d 0d5f aebb e72a 67be
00000340: 5fbf 703e b46f 93be 5908 42be 2fd8 4a3e
00000350: ae20 88be 847d 8e3e b698 e23d 04a0 b63d
00000360: df02 df3d f642 253e a91c c83c b1ad 0abe
00000370: ccdd 46be 66fb df3d afc9 40be 057c 23be
00000380: c030 6bbe 1907 8dbe 20bb 883c 8143 8f3e
00000390: 4843 99bb c15f 36be 49ab ba3d 48a8 053e
000003a0: d29b f43d f71c 49be a2aa 75bd 2714 7bbe
000003b0: c916 4cbe 20cc 1e3e 78cd 383d 8f42 52be
000003c0: f578 233e ebfd c7bd 7874 6fbe 3a37 8a3b
000003d0: f7ed 5fbd fe7c a8bd dc4f 4c3e 3f4e 6bbe
000003e0: 0b78 e3bd ae5f 76be 6b14 de3c 7a06 22bd
000003f0: 070e b23d f1d3 d0bd 8a8c fbbd 2cdb 8dbd

linear2.weight f4 [3, 256]
-0.0007287711 -0.037991643 -0.050748646 -0.041383687 0.00063896924 0.06601906 0.028256882 -0.029528143
0.00901539 -0.038842753 -0.06481517 -0.025897048 -0.06418332 0.013424622 0.005899559 0.03477925
-0.021451466 0.03889624 0.030391026 -0.035250805 -0.058548994 0.010108843 0.041151695 0.0006418608
-0.036495525 -0.024085343 -0.06049432 -0.023417227 -0.007495729 -0.055118468 -0.00032707688 -0.029458646
-0.023885943 0.019743899 0.046137467 -0.0016444491 -0.044815373 -0.028792575 -0.05561624 -0.05768931
0.059691668 0.030944124 -0.018473543 -0.05745627 -0.008278752 0.039055236 0.046240807 -0.015958225
0.039684538 -0.018905958 0.0132572185 -0.048271015 0.05846946 0.040046025 -0.060158804 -0.0042014364
-0.03395144 0.06391458 -0.060204543 0.03801331 0.013139469 -0.060311172 -0.056200076 0.004246138
0.011615999 -0.029004736 0.0045908764 0.0144250505 -0.025339305 -0.015682383 -0.015437335 0.0037132392
0.021489874 -0.0357531 0.008085622 -0.01860902 -0.014709286 0.0038260468 -0.024996718 0.025061112
-0.016565282 -0.034387328 -0.03778731 0.047899745 -0.014098525 0.051120892 -0.0035358816 0.0059294924
0.042752843 0.044340257 0.060007736 0.050185416 0.057247706 -0.044039525 -0.061933868 0.021119284
-0.020642575 0.026593044 0.028679697 -0.00041221 -0.018939905 -0.036431853 -0.016970353 0.049525503
-0.019972699 0.03682453 -0.052952413 0.046748217 -0.0058690547 -0.05554454 0.051515058 0.01093336
0.013088219 0.02539824 -0.012088254 -0.0027803108 -0.0040461253 0.014756481 0.004570745 0.038262855
0.00731145 -0.0566955 0.014664361 -0.0059323213 0.0025401155 0.0421585 0.029103726 -0.005069553
0.030608155 -0.0334832 0.037289485 0.040503517 -0.0036387118 -0.030899273 -0.038692337 -0.028790664
0.046059944 0.023089383 0.03225718 0.0008289833 -0.057254836 0.014421925 0.019129131 0.054455243
0.013265467 0.054040205 0.054166242 0.0022154623 -0.012934327 -0.054871984 0.047117293 0.036288515
0.055452224 -0.00818916 -0.015358016 -0.0065739863 -0.0066898707 0.050643004 0.003901605 0.026490651
0.0063448963 0.046344407 0.001651533 0.03735269 -0.05821319 -0.010354245 0.026410168 -0.06636508
-0.036377482 -0.017509205 0.030562147 0.04886563 -0.009131369 -0.038010508 0.04434059 0.020043096
0.023467168 -0.063070126 0.02522403 -0.0068344674 0.039097182 -0.05700884 0.03420192 0.05773091
-0.057041578 -0.022077242 -0.024471687 -0.022393009 0.01969563 0.0526841 -0.012393968 0.00577715
-0.0398262 0.005752289 0.060713127 0.05041148 -0.0050395057 0.032554068 -0.00018974679 0.024024896
-0.050464176 0.06091152 -0.036669724 -0.011012206 -0.050854106 -0.012341723 0.03278716 -0.01636538
0.014048947 -0.025487885 -0.0049655074 -0.038777642 0.02930016 0.032406867 -0.06743377 -0.057100955
-0.040105883 -0.05446991 -0.03755117 0.049361162 0.053254977 -0.045156352 0.009197294 0.0034709303
-0.0124996975 -0.0105032995 -0.021322465 0.02542259 -0.04651187 -0.012343273 0.02086035 0.0049824817
-0.010765885 -0.041945245 0.021452367 -0.014063889 -0.0009491424 0.027357554 -0.03866858 -0.003530629
-0.022715999 0.024463722 -0.0265482 0.055352762 0.033410173 0.02398439 0.030532425 -0.054197274
0.034997124 -0.016622432 0.031042874 0.036984265 0.03263595 0.009619946 -0.038314067 0.02175098
00000000: 000b 3fba 209d 1bbd d0dd 4fbd f181 29bd
00000010: 8080 273a 0035 873d fa7a e73c 01e5 f1bc
00000020: 49b5 133c 9419 1fbd d1bd 84bd 0c26 d4bc
00000030: 8b72 83bd f2f2 5b3c 1651 c13b b074 0e3d
00000040: fcba afbc aa51 1f3d 9af6 f83c 2663 10bd
00000050: 12d1 6fbd 909f 253c ae8e 283d 8d42 283a
00000060: 557c 15bd a04e c5bc e4c8 77bd 7cd5 bfbc
00000070: bb9e f5bb e7c3 61bd 847b abb9 4253 f1bc
00000080: 74ac c3bc f5bd a13c a4fa 3c3d 8e8a d7ba
00000090: 5390 37bd 68de ebbc dbcd 63bd a04b 6cbd
000000a0: 407f 743d 887e fd3c d455 97bc 4457 6bbd
000000b0: 9aa3 07bc 62f8 1f3d 0067 3d3d d3ba 82bc
000000c0: 418c 223d abe0 9abc ce34 593c d4b7 45bd
000000d0: ac7d 6f3d 4d07 243d 1469 76bd 34ac 89bb
000000e0: aa10 0bbd a6e5 823d 0a99 76bd d8b3 1b3d
000000f0: ed46 573c d908 77bd 0d32 66bd 3023 8b3b
00000100: 0851 3e3c 579b edbc 106f 963b 0c57 6c3c
00000110: 6094 cfbc 5778 80bc e0ec 7cbc d159 733b
00000120: 880b b03c d871 12bd 8f79 043c f271 98bc
00000130: 38ff 70bc 6abe 7a3b ebc5 ccbc f64c cd3c
00000140: eab3 87bc bad9 0cbd dec6 1abd 8632 443d
00000150: 80fd 66bc 2464 513d 40ba 67bb 304c c23b
00000160: 9b1d 2f3d 219e 353d acca 753d 398f 4d3d
00000170: 927c 6a3d ca62 34bd 5eae 7dbd 5902 ad3c
00000180: 9e1a a9bc a8d9 d93c aff1 ea3c e41d d8b9
00000190: dc27 9bbc 9139 15bd 6905 8bbc 41db 4a3d
000001a0: c99d a3bc 52d5 163d a1e4 58bd 0f7b 3f3d
000001b0: 3351 c0bb ac82 63bd 7401 533d d621 333c
000001c0: f86f 563c f80f d03c d00d 46bc e035 36bb
000001d0: 5c95 84bb 2bc5 713c 30c6 953b 83b9 1c3d
000001e0: e394 ef3b 8a39 68bd ca42 703c eb63 c2bb
000001f0: 1178 263b 64ae 2c3d f06a ee3c 7e1e a6bb
00000200: f4bd fa3c ae25 09bd dcbc 183d 04e7 253d
00000210: 7477 6ebb 7920 fdbc db7b 1ebd 66da ebbc
00000220: 5aa9 3c3d f225 bd3c 1b20 043d 2150 593a
00000230: 0c84 6abd f049 6c3c b2b4 9c3c 760c 5f3d
00000240: 6757 593c 4359 5d3d 6cdd 5d3d 4a31 113b
00000250: 80ea 53bc 72c1 60bd 10fe 403d 44a3 143d
00000260: df21 633d d42b 06bc 30a0 7bbc 986a d7bb
00000270: b436 dbbb 0a6f 4f3d 12b2 7f3b ec02 d93c
00000280: d9e8 cf3b a2d3 3d3d 4078 d83a 22ff 183d
00000290: f470 6ebd daa4 29bc 235a d83c 6aea 87bd
000002a0: 8e00 15bd 776f 8fbc 785d fa3c 5427 483d
000002b0: bd9b 15bc e8b0 1bbd 7a9e 353d 6b31 a43c
000002c0: 383e c03c e92a 81bd a0a2 ce3c abf3 dfbb
000002d0: 5e24 203d 1a82 69bd 5017 0c3d 3f77 6c3d
000002e0: 6ea4 69bd 55db b4bc d978 c8bc 8b71 b7bc
000002f0: bb58 a13c 48cb 573d 1210 4bbc 3f4e bd3b
00000300: cc20 23bd b37d bc3b 54ae 783d 457c 4e3d
00000310: 7022 a5bb 6a57 053d c4f6 46b9 dccf c43c
00000320: 86b3 4ebd 5c7e 793d fe32 16bd 8a6c 34bc
00000330: 654c 50bd f034 4abc d44b 063d b010 86bc
00000340: 8e2d 663c f8cb d0bc b2b5 a2bb 4ed5 1ebd
00000350: e406 f03c 10bd 043d b71a 8abd b1e2 69bd
00000360: 1146 24bd d71b 5fbd 41cf 19bd ee2e 4a3d
00000370: e421 5a3d def5 38bd 3fb0 163c 8c78 633b
00000380: 88cb 4cbc 0816 2cbc 73ac aebc 0943 d03c
00000390: 3b83 3ebd 703b 4abc 53e3 aa3c 1644 a33b
000003a0: 6563 30bc c7ce 2bbd e0bc af3c 3a6c 66bc
000003b0: decf 78ba f31c e03c f262 1ebd 2062 67bb
000003c0: e716 babc 2568 c83c 9c7b d9bc 94b9 623d
000003d0: 1bd9 083d e97a c43c 231f fa3c f6fd 5dbd
000003e0: 2559 0f3d c42b 88bc a04d fe3c d07c 173d
000003f0: 46ad 053d fa9c 1d3c 36ef 1cbd 1c2f b23c

linear2.bias f4 [3]
-0.05121351 -0.0058245114 0.048450854
00000000: 42c5 51bd 8bdb bebb 6774 463d
