model/model.pth (torch, 16787 bytes, 4 tensors)

linear1.weight f4 [256, 11]
-0.009186596 -0.027091324 -0.21865532 0.19055659 0.05294022 0.057452947 0.16680765 -0.053635836
-0.13601953 0.043067396 -0.12786971 -0.2746438 -0.46128353 0.27225164 0.28549916 0.30664307
0.14356689 0.26360637 -0.026957056 0.070030786 -0.5358665 -0.3409229 0.35361055 -0.28731596
-0.21221365 -0.017705193 1.042095 -0.38367712 0.4086763 -1.4675564 -0.95928836 0.22146158
-0.69414616 0.39222765 0.0519347 0.031562146 -0.54914564 -0.51171815 -0.31619918 -0.23478843
0.25462842 0.03985403 -0.055563748 0.13913767 -0.5463907 -0.077736415 -0.5063164 -0.5174848
0.024169458 -0.5190745 -0.53840137 0.38095185 -0.3153638 -0.7453504 0.0590351 -0.5039248
-0.0044320473 0.260174 -1.2116051 -1.2145249 0.45431617 0.19459519 -0.73996425 -0.56847686
0.11218526 0.12443207 -0.7413336 0.75134045 0.76879543 -1.3461063 0.42924556 0.21179378
-0.24761297 0.69084954 -0.25694522 0.6289273 0.75469714 0.16057533 0.105306014 -1.1447245
-0.52863073 0.4943541 0.38722098 -0.48825333 0.19522533 -0.34473807 -0.056748964 0.10417645
0.0049801245 -0.31297037 0.020061057 -0.0306647 -0.1391198 -0.35924974 -0.48356748 0.018557556
0.3089867 -0.5719826 -0.21726687 -2.284821 0.26883656 -0.6014759 -0.2764109 1.1127415
-0.7815212 -1.3911853 0.94767576 -0.4888748 -0.6858107 -1.1576582 -0.20197967 0.36131516
-1.4326235 -1.1346503 0.29463336 0.2992935 -1.0731596 -1.459358 -1.468261 0.47959435
-0.963236 -1.3871498 -0.12101325 -1.3225126 -0.2481115 0.61862814 -0.86161274 -0.38356102
0.68723726 -0.47257072 0.14422733 0.26047498 0.45438743 0.049874198 0.014878737 1.0076381
1.0470823 0.982572 0.9302558 -0.13632338 -0.028924784 0.29343393 0.23000278 -1.0182604
0.2046479 -0.6229371 0.21246041 0.100846395 -0.7497351 -0.8787689 0.22051176 0.3126633
-0.6314034 -0.2741006 0.052267224 0.046534464 0.36488944 -0.08512697 -0.1804328 -0.26201275
-0.17202227 -0.11586682 -0.3510369 -0.40340436 -0.09001549 0.34020516 0.36688438 -0.59820986
-0.116450064 -0.13967513 -0.27078554 -0.63535964 -0.32415918 -0.26497698 -0.32825485 -0.3237535
-0.30265227 0.047221757 0.098692425 -0.26894313 -0.47264606 -0.4486065 -0.17377205 -0.057165254
0.041886598 -0.27987358 -0.058844328 -0.10213891 0.09943963 0.061920382 0.024880016 0.11824765
-0.26176533 -0.05415296 -0.29298484 -0.17773348 -0.34081537 -0.3907034 0.43534714 0.027549488
-0.61524135 0.1916631 -0.4959831 -0.16919896 -0.15826139 0.06145841 -0.17783044 -0.046107136
-0.4174796 0.14044005 -0.16946602 -0.2994283 -0.18038052 0.5865185 1.3443784 0.8907721
1.2770832 1.1499041 0.39178017 0.40154803 -0.028062219 -0.3905906 -0.6131599 -0.26421404
-0.24191213 0.1130298 0.15607417 -0.0010818345 -0.2317441 -0.59166706 -0.6537859 0.12972783
0.057892114 -0.5297196 -0.2968462 0.09444096 -0.18929139 0.00572178 0.19031858 0.012960073
0.16109693 0.20075104 0.2519925 0.109003246 0.031724878 1.2910554 1.2708747 1.4671918
1.6482129 0.25690585 0.4056928 0.47776988 0.5652437 0.17382786 0.271073 0.3266289
00000000: 6083 16bc a0ee ddbc 2ee7 5fbe 4421 433e
00000010: d8d7 583d c853 6b3d a0cf 2a3e 40b1 5bbd
00000020: b448 0bbe 7067 303d 47f0 02be 1d9e 8cbe
00000030: 5b2d ecbe 9164 8b3e f22c 923e 5200 9d3e
00000040: 3303 133e 6af7 863e 0bd5 dcbc 4d6c 8f3d
00000050: 8c2e 09bf 728d aebe 710c b53e 141b 93be
00000060: 894e 59be 7b0a 91bc 5e63 853f 5471 c4be
00000070: 053e d13e e3d8 bbbf ec93 75bf d3c6 623e
00000080: 90b3 31bf 10d2 c83e 7bb9 543d 4f47 013d
00000090: cf94 0cbf f6ff 02bf dce4 a1be 616c 70be
000000a0: a85e 823e fb3d 233d d096 63bd 1b7a 0e3e
000000b0: 43e0 0bbf 4534 9fbd f49d 01bf e279 04bf
000000c0: 07ff c53c 11e2 04bf acd4 09bf 1f0c c33e
000000d0: 5d77 a1be 49cf 3ebf cace 713d 3701 01bf
000000e0: b53a 91bb 8735 853e e015 9bbf 8d75 9bbf
000000f0: 219c e83e f643 473e 4c6e 3dbf b387 11bf
00000100: 63c1 e53d 3ed6 fe3d 0ac8 3dbf d957 403f
00000110: c7cf 443f 364d acbf 13c6 db3e 78e0 583e
00000120: 418e 7dbe 84db 303f 538e 83be 6101 213f
00000130: d533 413f dc6d 243e aeaa d73d 5586 92bf
00000140: 5854 07bf fb1b fd3e d441 c63e 57fc f9be
00000150: 26e9 473e 8281 b0be 9a71 68bd 765a d53d
00000160: 5030 a33b a73d a0be 1657 a43c 8934 fbbc
00000170: 6c75 0ebe 95ef b7be 2896 f7be 0406 983c
00000180: 8133 9e3e 746d 12bf 357b 5ebe 823a 12c0
00000190: f2a4 893e 53fa 19bf bb85 8dbe 506e 8e3f
000001a0: c611 48bf 5c12 b2bf e19a 723f cc4d fabe
000001b0: 4a91 2fbf 252e 94bf c2d3 4ebe 4dfe b83e
000001c0: 3560 b7bf 393c 91bf 2fda 963e ff3c 993e
000001d0: 4b5d 89bf 3ecc babf faef bbbf 648d f53e
000001e0: a296 76bf 208e b1bf cbd5 f7bd 1848 a9bf
000001f0: f110 7ebe 6a5e 1e3f a792 5cbf 1c62 c4be
00000200: c8ee 2f3f caf4 f1be 54b0 133e fa5c 853e
00000210: 78a5 e83e e348 4c3d f2c5 733c 49fa 803f
00000220: cb06 863f d789 7b3f 3e25 6e3f 5b98 0bbe
00000230: abf3 ecbc f93c 963e d985 6b3e 5b56 82bf
00000240: 388f 513e ce78 1fbf 398f 593e 8e88 ce3d
00000250: a4ee 3fbf 00f7 60bf d6cd 613e 6715 a03e
00000260: a7a3 21bf ea56 8cbe 2816 563d ec9a 3e3d
00000270: cad2 ba3e 0d57 aebd 60c3 38be 8926 86be
00000280: 9b26 30be 954b edbd 1cbb b3be 048b cebe
00000290: 0b5a b8bd 5f2f ae3e 45d8 bb3e 4824 19bf
000002a0: 5f7d eebd ff06 0fbe 67a4 8abe eea6 22bf
000002b0: 31f8 a5be 10ab 87be 0511 a8be 05c3 a5be
000002c0: 3df5 9abe 9a6b 413d 411f ca3d eab2 89be
000002d0: aafe f1be c0af e5be 4df1 31be 1d26 6abd
000002e0: 4891 2b3d 974b 8fbe c006 71bd 342e d1bd
000002f0: 01a7 cb3d 3aa0 7d3d 2dd1 cb3c d32b f23d
00000300: 1b06 86be 7fcf 5dbd 1c02 96be c4ff 35be
00000310: 5a7f aebe 470a c8be d2e5 de3e 77af e13c
00000320: 7580 1dbf 5543 443e 7ff1 fdbe 7e42 2dbe
00000330: 460f 22be d0bb 7b3d 2f19 36be d6da 3cbd
00000340: e3bf d5be 84cf 0f3e 8088 2dbe ab4e 99be
00000350: acb5 38be 1426 163f 9714 ac3f a409 643f
00000360: 7677 a33f 0f30 933f 6997 c83e b497 cd3e
00000370: bde2 e5bc 7efb c7be 0cf8 1cbf 1047 87be
00000380: d0b7 77be 2b7c e73d e8d1 1f3e 58cc 8dba
00000390: 534e 6dbe 7e77 17bf 835e 27bf 5fd7 043e
000003a0: 4820 6d3d b49b 07bf 3afc 97be 436a c13d
000003b0: 9ad5 41be c57d bb3b e0e2 423e 7c56 543c
000003c0: 98f6 243e ae91 4d3e 2905 813e 183d df3d
000003d0: f2f1 013d 4e41 a53f 06ac a23f f1cc bb3f
000003e0: a4f8 d23f 2a89 833e f7b6 cf3e 419e f43e
000003f0: d0b3 103f eeff 313e 15ca 8a3e e73b a73e

linear1.bias f4 [256]
-0.25120026 -0.6705376 -0.45781362 -0.7207104 -0.48201165 0.49182653 -1.7759573 -1.1137797
-0.4570047 -0.066118635 0.23482727 -1.005052 -1.4340453 -0.83239543 -0.36934775 -0.40297166
-0.08323021 -0.17751579 -0.7678715 -2.3125498 -0.16911611 -0.7859076 -2.5197024 -0.75243187
-0.727375 -0.34757423 -0.2330562 -0.84383816 -2.0351133 -0.6134947 -0.7856845 -0.06783448
0.56861365 -0.41888714 -0.13448393 -1.1477545 -0.38844386 -3.7331166 -1.1611534 -0.6994648
-1.0725026 -2.460164 -0.22947001 -0.18476611 -0.45378837 -0.9793978 0.7580018 -0.48970923
-0.09078099 -0.43171403 -0.4960966 -0.0143622635 -0.8111452 -0.49661136 -0.36962995 -3.3414016
-0.21603225 -0.19889015 -0.49091595 -0.4135793 -0.30887595 -0.06699676 -0.71374094 -0.3434204
-0.16873373 -0.8230703 -0.46968448 -0.5758463 -0.17863625 0.7810667 -0.12733544 -0.67637175
-0.62542564 -0.42934814 0.6087813 -0.5443079 1.1236173 -1.3166081 -0.5804704 -1.116257
-0.44458538 -0.5754061 -0.2885001 -0.48108515 -0.28229114 -0.060615968 -0.40315595 -0.24545923
-0.03163973 0.04148602 -0.4772735 -0.64291126 -0.86163944 0.39885345 -3.2320457 -1.4830477
0.6346599 -4.5688834 -3.3695145 -0.22861966 -0.3808505 -0.88511056 -1.8176847 -4.198717
-0.45402238 -0.21207882 -3.4897199 -0.7371652 -0.3774549 -0.42979196 0.30698803 -0.39450443
0.5162674 -0.7428775 -0.74773294 -0.17422661 0.72620964 0.1821749 0.14050178 0.08591371
-0.5234348 -0.21504338 -0.65563804 -0.18467726 -0.24841088 -0.06350676 -0.45771328 0.21049058
0.5095744 -0.6004918 -0.5798084 -0.95330054 -1.8699064 0.010076555 -2.7011535 -0.5250186
-0.38638464 -0.59986556 1.0789281 -1.6891392 -0.39130342 -1.3188843 0.31210747 -0.27851936
-0.056943048 -0.41637257 0.32837418 -1.7726632 0.30416375 -0.2674014 -0.81457114 0.4881284
-1.1317515 -0.4119114 0.5857542 -0.33485934 -1.2636267 -0.45940566 -0.7587203 -0.8921582
-0.08067467 -0.3064545 -0.9561895 -1.3190663 -0.04685475 -0.08032037 -0.373314 -1.7652153
0.7080557 -0.41275612 -0.17680746 1.5036111 0.62078846 -0.20751165 0.02293835 -0.5130403
-0.8780789 -0.3487253 -2.951683 0.22292069 0.012043112 0.1331257 -0.17298037 -0.19026236
0.511081 -0.47005498 -0.3772751 0.9660483 -2.4509366 -0.26326638 -0.27169448 -1.0611506
-1.0182209 -0.8685384 0.8288131 -1.9700494 -0.1916452 -0.67754066 -0.46403107 -0.23762149
-0.47739714 -0.33739015 1.3000786 -4.102978 0.77274245 -1.2637631 -1.2922628 -0.54766136
-0.074921034 -0.763389 0.3289804 -0.09878993 -0.27945513 -0.5569025 -3.1229777 -0.35181582
-0.44151112 -0.6725409 -0.8834449 -0.9027996 -0.09670038 -0.4000358 -1.9968218 -0.9759755
0.023241129 -0.27739578 -0.31438714 -0.39247414 -1.5518038 -3.9693453 -0.2399356 -0.36987746
-0.7232771 -1.8715323 -0.02125393 -1.2518272 -0.67097116 -0.28888994 -0.12567072 -0.32589954
-0.45616314 -0.5595439 -0.59780115 -0.2202735 -0.8118791 -0.41627046 -0.48872757 -0.20957042
-0.49761045 -0.2232218 -0.64453363 -0.3118419 -1.1454532 -0.32812777 -2.659373 -1.1723429
00000000: 529d 80be 5aa8 2bbf 8c66 eabe 7a80 38bf
00000010: 3bca f6be b0d0 fb3e 9252 e3bf 5590 8ebf
00000020: 85fc e9be 3569 87bd 8f76 703e 8ba5 80bf
00000030: cc8e b7bf de17 55bf 261b bdbe 4d52 cebe
00000040: 9a74 aabd b3c6 35be 3a93 44bf d100 14c0
00000050: c62c 2dbe 3e31 49bf ce42 21c0 609f 40bf
00000060: 3f35 3abf 40f5 b1be 49a6 6ebe c705 58bf
00000070: 4c3f 02c0 fd0d 1dbf 9f22 49bf ceec 8abd
00000080: aa90 113f 6078 d6be 28b6 09be 9fe9 92bf
00000090: 1de2 c6be 62eb 6ec0 ada0 94bf 2010 33bf
000000a0: c447 89bf 5473 1dc0 30fa 6abe 5433 3dbe
000000b0: f356 e8be d0b9 7abf 680c 423f 2bbb fabe
000000c0: 62eb b9bd 9f09 ddbe 6000 febe b34f 6bbc
000000d0: 36a7 4fbf d843 febe 2340 bdbe 86d9 55c0
000000e0: 8f37 5dbe dca9 4bbe 5659 fbbe aac0 d3be
000000f0: fd24 9ebe 9935 89bd bab7 36bf ccd4 afbe
00000100: 89c8 2cbe bcb4 52bf 7c7a f0be aa6a 13bf
00000110: 6cec 36be fdf3 473f 3964 02be b326 2dbf
00000120: e51b 20bf 85d3 dbbe 17d9 1b3f c357 0bbf
00000130: b1d2 8f3f 9d86 a8bf b599 14bf 82e1 8ebf
00000140: b2a0 e3be d04d 13bf 49b6 93be cb50 f6be
00000150: 7788 90be 7348 78bd 756a cebe aa59 7bbe
00000160: a998 01bd 3fed 293d 315d f4be d595 24bf
00000170: 6794 5cbf 8536 cc3e d6d9 4ec0 82d4 bdbf
00000180: 1279 223f 4b34 92c0 20a6 57c0 461b 6abe
00000190: d6fe c2be 9b96 62bf e4a9 e8bf e45b 86c0
000001a0: 9f75 e8be 312b 59be 9257 5fc0 dcb6 3cbf
000001b0: c541 c1be b10d dcbe 892d 9d3e 7cfc c9be
000001c0: 1a2a 043f 382d 3ebf 6d6b 3fbf 7668 32be
000001d0: e0e8 393f 0f8c 3a3e b3df 0f3e 87f3 af3d
000001e0: d3ff 05bf 5534 5cbe e5d7 27bf 091c 3dbe
000001f0: 6c5f 7ebe d50f 82bd 6559 eabe d88a 573e
00000200: 7873 023f d5b9 19bf 536e 14bf 810b 74bf
00000210: 1859 efbf 2318 253c b3df 2cc0 9e67 06bf
00000220: 35d4 c5be ca90 19bf 511a 8a3f b735 d8bf
00000230: ec58 c8be 33d1 a8bf 8dcc 9f3e 179a 8ebe
00000240: 1d3d 69bd c92e d5be a920 a83e a1e6 e2bf
00000250: 5abb 9b3e d6e8 88be bc87 50bf f7eb f93e
00000260: 3cdd 90bf 0de6 d2be fdf3 153f af72 abbe
00000270: 85be a1bf 3837 ebbe 7e3b 42bf 7b64 64bf
00000280: c338 a5bd 9be7 9cbe d6c8 74bf 2ad7 a8bf
00000290: c4ea 3fbd 027f a4bd 0323 bfbe 93f2 e1bf
000002a0: 2343 353f c554 d3be 040d 35be 5476 c03f
000002b0: feeb 1e3f ef7d 54be 35e9 bb3c 9c56 03bf
000002c0: c7c9 60bf 1f8c b2be 60e8 3cc0 5245 643e
000002d0: 7950 453c 1a52 083e c421 31be 23d4 42be
000002e0: 34d6 023f 0cab f0be 342a c1be f14e 773f
000002f0: 25dc 1cc0 daca 86be 8a1b 8bbe c8d3 87bf
00000300: 1055 82bf 8858 5ebf 182d 543f 942a fcbf
00000310: a43e 44be 4e73 2dbf 7b95 edbe 0c53 73be
00000320: 666d f4be 67be acbe fa68 a63f 994b 83c0
00000330: 73d2 453f fdc2 a1bf de68 a5bf 8933 0cbf
00000340: 3370 99bd 766d 43bf 1e70 a83e 6052 cabd
00000350: be14 8fbe 2a91 0ebf dede 47c0 3421 b4be
00000360: bf0d e2be a42b 2cbf 7229 62bf e01d 67bf
00000370: d90a c6bd 7ed1 ccbe db97 ffbf 88d9 79bf
00000380: 2e64 be3c d206 8ebe 5af7 a0be 5ff2 c8be
00000390: 82a1 c6bf c109 7ec0 aeb1 75be 9460 bdbe
000003a0: b028 39bf 5f8e efbf b91c aebc e03b a0bf
000003b0: c4c4 2bbf 62e9 93be d3af 00be 4edc a6be
000003c0: 378e e9be 453e 0fbf 7f09 19bf 608f 61be
000003d0: 4fd7 4fbf 6721 d5be 803a fabe a199 56be
000003e0: ccc6 febe 4194 64be 2800 25bf bea9 9fbe
000003f0: 369e 92bf 5d00 a8be 2b33 2ac0 550f 96bf

linear2.weight f4 [3, 256]
0.01595474 -0.021726217 1.9165151 -0.02432888 0.58503586 0.7398418 1.6626809 5.2777433
-0.026501881 -0.344236 0.27746928 0.56258255 5.8403234 -2.7096003e-05 -0.04339829 0.31395578
-0.005109095 -0.004162871 1.9843037 4.191014 2.90747 0.003748463 4.6108418 -3.2985427
2.6229281 -0.046537794 -0.015973976 -0.2336476 3.931033 -0.049375597 -0.3047178 -0.010375833
0.69695586 0.015469352 -0.23252681 9.346544 -0.0206643 2.4767427 2.0662024 0.880822
-0.06313579 3.7983487 0.04731381 0.0016858804 -0.10098063 0.1473236 0.86924523 -0.028668199
-0.018717153 -0.07372648 0.051430345 0.004316021 0.0014751727 4.0163984 -0.012079364 2.5189462
-0.42624176 -0.02438754 -0.018378178 -0.4926453 -0.01269688 -0.03172065 -0.24398234 0.025259651
-0.59540695 -0.32699573 0.024491439 -0.11064419 -0.002575777 0.016235884 0.007698441 0.0036724214
0.13917796 -0.031857945 -0.68444145 -0.040622737 0.7386654 8.975627 1.2484055 5.332154
0.031216066 0.004245691 0.014001124 0.0021215556 -0.017239407 0.029949063 0.007999302 0.026522417
0.007887372 0.6751635 0.5664438 1.2344078 0.28857866 0.8621738 1.6450884 4.5695095
0.20638181 4.6675453 3.1966574 -0.5773428 0.03519874 0.14596601 4.212725 2.660069
-0.637858 -0.0115346415 3.2520795 -0.20563395 0.00018673332 0.01918393 0.55329573 0.40713006
1.2570319 -0.13006823 0.11423358 3.7114735 0.033472028 -0.46715897 0.38779363 0.015722003
0.0076531405 0.019091723 0.053205848 0.110452116 0.003190842 0.007406357 0.3052606 0.054857966
1.0833611 -0.16538295 0.020129943 -2.091867 5.989487 6.166325 8.873382 -0.37462485
0.13198505 -0.18143745 0.816284 8.570317 -0.0054744827 16.14266 0.041735955 0.17936699
0.017032048 0.016720278 1.1926409 4.9259343 0.0030526607 -0.3210318 2.2299702 0.7103583
-0.19046143 0.20459904 0.2117401 -0.010023631 14.368889 -1.6026284 0.31377155 3.2231617
0.9851556 0.0034995347 -2.6394362 0.5683051 0.01507499 0.04046011 -0.010830065 2.8955257
0.13340834 1.4689128 -0.032764062 0.61647075 0.5743332 0.112047106 -0.10752774 -0.4257524
0.298102 0.0708147 6.1768794 0.7805501 -0.11584845 0.8660134 0.025607187 0.023989653
-0.2176905 0.30372158 0.031972863 0.28063256 3.7000673 0.0012456009 -0.026864838 1.8218554
-0.34210405 -0.058566634 0.43626422 6.3136606 0.052252065 0.39770854 -0.3316333 -0.006642888
0.21440068 0.023713995 0.59585464 4.67106 -0.49284 -0.026378838 -0.6633382 1.7465949
-0.026124367 -0.4182516 -0.32949302 0.04383368 0.06582958 0.025639683 4.4323306 -0.44009885
0.0027337258 2.2101316 1.8951359 4.1900263 -0.0015840312 0.049826674 7.8532987 -0.15901767
0.0015778914 0.02181089 -0.7293139 -1.2151504 4.467364 6.5059586 0.053479243 -0.76543474
4.813751 1.2126608 -0.22386736 3.5611033 10.476569 -0.2247054 0.03502427 2.4205973
0.041259654 0.025119895 3.036767 0.004652015 0.0021865582 0.21218258 -0.5928149 0.038818344
-0.53350675 0.0036995567 4.2343755 0.021470657 -1.558869 -0.0009109395 9.8145075 0.46571776
00000000: 84b3 823c 2efb b1bc 5e50 f53f 5c4d c7bc
00000010: e9c4 153f 4666 3d3f bad2 d43f 46e3 a840
00000020: 791a d9bc b33f b0be 7410 8e3e 6905 103f
00000030: eee3 ba40 394c e3b7 68c2 31bd d0be a03e
00000040: 326a a7bb b168 88bb aafd fd3f c91c 8640
00000050: fd13 3a40 c6a8 753b 048c 9340 531b 53c0
00000060: 0ede 2740 6a9e 3ebd dbdb 82bc 5141 6fbe
00000070: 0b96 7b40 113e 4abd f903 9cbe 66ff 29bc
00000080: b36b 323f 2a73 7d3c 821b 6ebe 728b 1541
00000090: 2e48 a9bc f482 1e40 a93c 0440 8d7d 613f
000000a0: 564d 81bd 2518 7340 20cc 413d c2f8 dc3a
000000b0: efce cebd ffdb 163e db86 5e3f 92d9 eabc
000000c0: b754 99bc e9fd 96bd a0a8 523d 696d 8d3b
000000d0: 955a c13a 5686 8040 86e8 45bc 6a36 2140
000000e0: 5c3c dabe 61c8 c7bc d58d 96bc 013c fcbe
000000f0: 9306 50bc 83ed 01bd 82d6 79be 54ed ce3c
00000100: 976c 18bf fc6b a7be 45a2 c83c 6c99 e2bd
00000110: 5ece 28bb 1e01 853c 3443 fc3b 02ad 703b
00000120: ab84 0e3e 7a7d 02bd 8e37 2fbf 0764 26bd
00000130: 2d19 3d3f 2b9c 0f41 c0cb 9f3f 01a1 aa40
00000140: d6b8 ff3c 701f 8b3b f864 653c cc09 0b3b
00000150: a839 8dbc bd57 f53c 810f 033c 8a45 d93c
00000160: 093a 013c 84d7 2c3f 7602 113f 1301 9e3f
00000170: 95c0 933e 6cb7 5c3f 4292 d23f 6c39 9240
00000180: c155 533e 885c 9540 0996 4c40 bdcc 13bf
00000190: 8e2c 103d 1d78 153e a5ce 8640 923e 2a40
000001a0: a94a 23bf cbfb 3cbc 1222 5040 b591 52be
000001b0: d8cd 4339 9e27 9d3c caa4 0d3f 5a73 d03e
000001c0: 6ce6 a03f 9b30 05be 4cf3 e93d c888 6d40
000001d0: f719 093d 762f efbe e38c c63e 6ecb 803c
000001e0: 32c7 fa3b 3f66 9c3c 60ee 593d b834 e23d
000001f0: 721d 513b 07b1 f23b 1e4b 9c3e bfb2 603d
00000200: 94ab 8a3f 265a 29be 8de7 a43c 26e1 05c0
00000210: e1a9 bf40 8952 c540 5ff9 0d41 d4ce bfbe
00000220: 1727 073e bdca 39be fdf7 503f 0520 0941
00000230: 4a63 b3bb 2b24 8141 52f3 2a3d fbab 373e
00000240: cb86 8b3c f7f8 883c 75a8 983f 41a1 9d40
00000250: 260f 483b 485e a4be d5b7 0e40 0bda 353f
00000260: 5208 43be 6982 513e 66d2 583e 283a 24bc
00000270: f8e6 6541 ed22 cdbf aaa6 a03e 4848 4e40
00000280: 2833 7c3f 7358 653b 86ec 28c0 717c 113f
00000290: 17fd 763c 80b9 253d 9670 31bc 4b50 3940
000002a0: 329c 083e 5605 bc3f 9c33 06bd 07d1 1d3f
000002b0: 8007 133f f478 e53d 8137 dcbd 38fc d9be
000002c0: d3a0 983e 4c07 913d ffa8 c540 22d2 473f
000002d0: f441 edbd 0eb3 5d3f 2ac6 d13c f385 c43c
000002e0: 42ea 5ebe 6581 9b3e faf5 023d 12af 8f3e
000002f0: e7cd 6c40 6e43 a33a a613 dcbc 8f32 e93f
00000300: 4328 afbe 91e3 6fbd 065e df3e 8209 ca40
00000310: 4306 563d 74a0 cb3e d7cb a9be 95ac d9bb
00000320: da8b 5b3e da43 c23c ee89 183f 5379 9540
00000330: 8655 fcbe 6f18 d8bc 88d0 29bf 6c90 df3f
00000340: c502 d6bc 1325 d6be 4fb3 a8be f28a 333d
00000350: a9d1 863d 500a d23c a7d5 8d40 a354 e1be
00000360: 4f28 333b cc72 0d40 d093 f23f b214 8640
00000370: 449f cfba 0e17 4c3d 394e fb40 87d5 22be
00000380: 40d1 ce3a c0ac b23c 51b4 3abf 0c8a 9bbf
00000390: a5f4 8e40 d030 d040 0d0d 5b3d 88f3 43bf
000003a0: 400a 9a40 7838 9b3f 7c3d 65be 1ee9 6340
000003b0: 07a0 2741 2c19 66be 9c75 0f3d 11eb 1a40
000003c0: e2ff 283d 3dc8 cd3c 645a 4240 ee6f 983b
000003d0: 5c4c 0f3b 6446 593e b8c2 17bf fcff 1e3d
000003e0: e693 08bf 4374 723b 0180 8740 3be3 af3c
000003f0: 0589 c7bf 1dcc 6eba 3908 1d41 8f72 ee3e

linear2.bias f4 [3]
0.9501811 -0.0057050423 -0.3912725
00000000: 123f 733f 5df1 babb de54 c8be
